logs/ckpt/dinning_table.ckpt (torch, 686261 bytes, 24 tensors)

init_enc.0.weight f4 [128, 4]
000000 d3 72 41 3d 67 cd 34 3f f0 ab 69 3e 79 a2 ed 3e
       0.047228646 0.7062592 0.22819495 0.4641302
000010 ea 96 e9 3e 99 3b 61 be 26 78 44 3e c0 20 ad bd
       0.4562295 -0.21995391 0.19186458 -0.08453512
000020 4e 77 e2 3d fa 9d 42 3f 3a 20 00 3f e0 32 ef 3e
       0.11057912 0.76022303 0.50049174 0.46718502
000030 9a 59 c5 3e 5e 47 4b 3f bb 4d 2c 3f f3 c8 75 be
       0.38544923 0.7940577 0.6730611 -0.24002437
000040 4f bd 52 3d 2f 95 b1 bc 9e 00 75 3e 79 d4 02 be
       0.05145007 -0.021677582 0.23926017 -0.12776364
000050 f1 13 0d 3f 77 3e 2f 3f 40 63 7c 3e 03 2f 24 bf
       0.55108553 0.6845469 0.24647236 -0.64134234
000060 39 77 c6 3e 02 02 af bd 19 15 99 bf ae 77 01 bf
       0.38762835 -0.08545305 -1.1959563 -0.5057324
000070 47 97 33 be 44 4b 4f bc a5 1a 01 3f 00 81 13 bf
       -0.17538176 -0.012652222 0.5043128 -0.57618713
000080 53 c5 81 3c 6f 81 71 3e f9 b7 01 bf 9f 28 05 3f
       0.015841162 0.23584531 -0.50671345 0.5201511
000090 39 3a 10 bf 37 5a 64 be 79 d4 8e 3f b9 48 bd be
       -0.5633884 -0.22300039 1.1158592 -0.36969545
0000a0 2e da 89 3c 2e 89 80 3e fb a2 79 3e 42 91 ff be
       0.016827669 0.2510466 0.24378578 -0.4991551
0000b0 77 df 97 bc 22 21 87 be 8e f5 14 3e bc 20 c4 bd
       -0.018539174 -0.26392466 0.14546797 -0.09576556
0000c0 3b fa 1a bb 85 d1 ed bc 4b 48 fd be 13 ce 5b 3f
       -0.0023647684 -0.02903057 -0.49469218 0.8586132
0000d0 53 e3 9d 3c 5f 8f 40 3e e5 2b c7 bf 07 e5 12 3f
       0.019273436 0.18804692 -1.556027 0.5738072
0000e0 80 ec 63 be cc 33 46 bf 47 7b 9a bd dc 48 20 bf
       -0.22258186 -0.77422786 -0.075430445 -0.62611175
0000f0 a0 34 81 bd 56 45 95 3e 24 fe 01 3f 0c d7 0f bf
       -0.063088655 0.29154462 0.5077841 -0.5618751
000100 8e c5 d2 be a5 44 47 3f 24 9d d7 bd fb 52 4a bf
       -0.41166347 0.7783912 -0.10528019 -0.7903287
000110 e1 fd 78 3e 78 6b 94 3d 62 d7 eb 3e cb 12 e4 bd
       0.24315597 0.072470605 0.46062762 -0.11136397
000120 0a 01 13 be e3 bb 50 be 3f 47 60 bf 3a ab 3f bf
       -0.14355865 -0.20384173 -0.8760871 -0.74870646
000130 f9 65 ce be f3 8c 8e bc bf 03 0d bf a9 39 d6 3e
       -0.40312174 -0.017401194 -0.5508384 0.41840866
000140 85 bb 5e 3d 13 40 09 3e 65 3c 8c 3e c7 9b 49 bf
       0.05437805 0.13403349 0.27389827 -0.7875332
000150 f5 a9 54 3c fe 0c 4b be c1 26 a9 be cf 82 98 3e
       0.012979974 -0.19829175 -0.3303738 0.297873
000160 c9 b3 b5 be cb d6 e2 3e 89 2d 99 bf 89 1d 93 bf
       -0.35488728 0.443045 -1.1967021 -1.1493388
000170 9d 3e f0 3e ef d5 74 3d a9 7e 20 3f 04 6d 41 3e
       0.4692277 0.059774335 0.6269327 0.18889242
000180 73 b9 c6 be 1f ae c3 bd 24 d7 23 3f f3 be 3a be
       -0.38813362 -0.09554695 0.64000154 -0.18236904
000190 02 48 4b be d3 25 ca be fe 6d 18 3e 35 bc 12 3e
       -0.19851688 -0.39481983 0.14885709 0.14329608
0001a0 8c da 34 bf 59 68 97 3e 41 94 cc 3e a6 7a dd 3d
       -0.70645976 0.29571798 0.3995686 0.10814409
0001b0 e0 ce 1e bf 63 47 a5 3d c2 24 f5 bf e0 e0 c9 be
       -0.62034416 0.080702566 -1.9151843 -0.39429379
0001c0 3f 3c a3 bc e9 69 c3 3d f2 e3 06 be c6 7d 5a 3f
       -0.019926189 0.09541685 -0.13172892 0.85348165
0001d0 93 63 29 be 32 4c e4 be f4 91 70 be 72 58 1c bf
       -0.16541891 -0.44589382 -0.23493177 -0.61072457
0001e0 0e 62 a8 3e 94 28 27 3e d3 ae 4b 3e 64 48 a1 3e
       0.3288731 0.16324073 0.19890909 0.31500542
0001f0 1e 0a b0 bb 71 3d eb 3e 5b 44 a4 b9 ba 60 3c bd
       -0.0053723 0.45945314 -0.00031331446 -0.045990683
000200 f8 11 51 bf d9 b2 9e bd 0b 4b 06 3d 64 48 ff bc
       -0.81668043 -0.07748956 0.03278641 -0.031162448
000210 25 29 d5 be 11 17 3d bf 7d d8 71 be 0d 9e df be
       -0.41632953 -0.7386332 -0.2361774 -0.4367527
000220 3e ed 8a 3e bb d7 a0 3e ef fb 0f 3f c2 f7 be be
       0.27134126 0.3141459 0.56243795 -0.372984
000230 cd 6f 76 3e 63 90 82 3e 10 79 1a c0 58 94 f8 bd
       0.24066086 0.25500783 -2.413639 -0.12137669
000240 f6 23 86 3c 0f a2 25 3f e5 c2 50 bf a8 c4 de 3c
       0.01637457 0.64700407 -0.81547385 0.027193382
000250 e6 71 4e 3e 36 cf ff be 11 ae c4 3e 36 ad ac be
       0.20160636 -0.49962777 0.38414052 -0.337259
000260 51 2b 1e 3f 09 e7 1e bf 20 b1 74 be 12 a3 1e bf
       0.61784846 -0.6207128 -0.23895693 -0.61967576
000270 03 5f af 3e dc 3d 9a 3e d1 ec 01 c0 78 45 0c 3f
       0.34252176 0.3012532 -2.0300791 0.547935
000280 00 9c f6 3e d3 dc 89 3e 43 67 05 3e 10 3a 4d 3c
       0.48165894 0.26926288 0.13027672 0.01252605
000290 6c 12 28 bd ae bc 52 3e bf 5f 3e 3d 4f 83 74 be
       -0.041033193 0.20579788 0.04647803 -0.23878215
0002a0 1a 86 b1 bb 46 01 c0 bc b9 eb 0f 3f f9 4f 2a 3f
       -0.0054175975 -0.023438107 0.5621906 0.6652828
0002b0 cd bc 75 3d 1a 10 12 bf b3 ef 61 bf dc 0b db bf
       0.059994508 -0.5705582 -0.88256377 -1.7112994
0002c0 9e 08 0d 3e 13 ad 36 3e 07 03 4c be e4 0c 02 3f
       0.13772818 0.1783946 -0.1992303 0.5080092
0002d0 ca 4a 60 be 18 2a 05 3f 95 8f ab 3d 32 9f 0a 3f
       -0.2190353 0.52017355 0.083769955 0.5414916
0002e0 16 be 94 3d de 90 c2 3e 7c 3d 91 3b c4 40 26 3f
       0.072628185 0.3800115 0.0044323783 0.64942575
0002f0 a7 17 b7 be af bf ce be 17 fa 7b 3e 7b e0 b1 3e
       -0.35760233 -0.40380618 0.2460712 0.34741578
000300 43 8f 26 bf 11 a7 c7 3d 5e c4 90 3e 0d 71 02 be
       -0.6506235 0.09748662 0.28274816 -0.12738438
000310 33 59 16 3f 0b 8a e8 3e 50 68 b8 bf 53 3f 32 bf
       0.5872986 0.45417818 -1.4406834 -0.69627875
000320 d5 33 20 bf 20 a6 53 3d d3 1c a7 bc ac 0b 97 bd
       -0.6257909 0.0516721 -0.020399487 -0.07375273
000330 d1 22 07 3f 4b 19 8a be db 47 6c bf 36 06 1b 3f
       0.527875 -0.26972422 -0.9229714 0.6055635
000340 ed 49 b6 3c 97 82 c0 3e 9c 78 04 bf c4 be a8 3e
       0.022252047 0.37599632 -0.51746535 0.32958043
000350 cb 3d 8d 3e 52 33 46 bf f1 38 3b 3e 50 bc 30 3e
       0.27586207 -0.7742206 0.1828344 0.17259336
000360 18 a9 b1 bc 38 e5 80 3e 81 ee 86 3d c4 cc d2 3e
       -0.021687075 0.2517488 0.0658846 0.4117185
000370 b5 a6 cc be 93 fb 5b 3e 74 15 27 3f a2 fd 29 bd
       -0.39970937 0.21482687 0.6526711 -0.04150165
000380 2c e8 b3 3c 6e c9 61 3f ce 68 e1 3e d9 17 1c be
       0.021961294 0.8819798 0.44025272 -0.15243472
000390 4e e7 9f 3d 84 ad 63 3d 06 e8 ee be 93 52 ef 3e
       0.0780779 0.0555854 -0.46661395 0.46742687
0003a0 84 8e 8a be 43 84 90 3e 3d 3e c8 3e fc 9a a4 3e
       -0.27061856 0.28225908 0.39109984 0.32149494
0003b0 48 1b 03 3f c9 f4 c4 3c 1f f2 06 3f 93 1a f1 3c
       0.512135 0.024042504 0.527132 0.029431617
0003c0 e2 ea b1 be 93 aa cc 3e 2c 97 76 3e 7c 96 93 be
       -0.34749514 0.39973888 0.24081105 -0.28825748
0003d0 91 a9 ee be c9 85 ba be 1b 0e e3 3b c2 45 24 3d
       -0.46613744 -0.36430195 0.0069291717 0.04010559
0003e0 dc 47 c5 be ad 2c f5 3e 92 d0 0f 3f e8 26 e8 be
       -0.38531387 0.47885647 0.5617763 -0.45342183
0003f0 b7 ea 4c be ff f3 fc 3e 68 26 b1 be 50 d1 4f 3f
       -0.20011412 0.49404904 -0.34599614 0.8117876

init_enc.0.bias f4 [128]
000000 dc fb 5b be 39 c4 d7 bf c6 2e 11 bf ea af ae be
       -0.21482795 -1.6856757 -0.56711996 -0.34118587
000010 95 78 f8 3d 82 bd d4 be bd 84 fc 3e d4 d5 48 3e
       0.12132374 -0.41550833 0.4932002 0.19612819
000020 d8 05 b5 be 89 63 ab bf b5 02 a8 3e 7b 7d 4d 3e
       -0.3535602 -1.3389751 0.32814565 0.20067398
000030 06 d7 70 be 35 3e 17 3e 1a f3 a7 be 21 82 da 3e
       -0.23519525 0.14769824 -0.3280266 0.42677405
000040 fb e0 c2 3c b9 23 4f bd c3 eb 0e 3f 64 3e b5 3e
       0.02378892 -0.050571177 0.55828494 0.35399163
000050 eb b8 02 3f db 5e 57 3e 7b 78 ac bd 2e 13 f5 be
       0.5106341 0.21032278 -0.08421417 -0.47866195
000060 86 95 46 3e b7 88 92 3e da 4c 50 bf 37 45 e1 3e
       0.19392976 0.2861993 -0.81367266 0.4399812
000070 59 99 b3 be 79 25 c7 3e 25 6b ed bd 92 a7 b6 3e
       -0.35077932 0.38895777 -0.11592702 0.3567472
000080 d8 9e 25 bf ae f4 90 bc 5e 00 56 3c 51 2a 08 3e
       -0.646955 -0.017694797 0.013061611 0.13297392
000090 82 70 f4 3e 26 88 ff 3d be bd 4e 3d 80 b5 b2 be
       0.47742087 0.1247714 0.05047392 -0.349041
0000a0 fa 39 34 bd e8 ef 5f 3e 23 9f 71 be ce a5 13 bc
       -0.044000603 0.2186886 -0.23595862 -0.009011699
0000b0 7a 8f ec bc 41 10 08 bf 46 74 20 be 2b 2d 8a 3e
       -0.028877009 -0.531498 -0.15669355 0.26987585
0000c0 6e c6 91 be e6 a0 e9 3d 25 87 dc 3d 47 8c e4 be
       -0.28471702 0.11407642 0.10767964 -0.44638273
0000d0 30 be 59 3e 2a 14 03 bf d7 ed f7 3d cf 0a 91 be
       0.21263957 -0.5120264 0.12105911 -0.2832856
0000e0 10 52 4d be 20 a3 9b 3d ed 61 f0 be bf b3 f9 be
       -0.20050836 0.07599473 -0.4694971 -0.48769948
0000f0 f9 04 bc 3d 8b ac e5 be 88 10 90 bd 60 92 fc be
       0.09180636 -0.44858202 -0.07034403 -0.49330425
000100 40 f2 9f 3e 67 11 1e be f9 54 3d be 5e c2 c4 be
       0.3123951 -0.15436326 -0.18489446 -0.3842954
000110 09 52 bd be 4a 63 3e 3e f7 70 6f 3e 45 44 ad be
       -0.3697665 0.18592563 0.23382936 -0.33841148
000120 c5 33 db be bd f3 f7 be 57 ba 90 be 15 1a 76 3d
       -0.42812935 -0.48428145 -0.28267166 0.060083468
000130 13 cb 8c be c5 83 84 3e b9 0a d2 be 98 f1 a7 3e
       -0.27498683 0.25881782 -0.41023806 0.3280151
000140 38 01 18 be 3d c5 f1 be a1 7f 78 3d c5 55 ab be
       -0.14844215 -0.47220793 0.06066859 -0.33463874
000150 e8 69 f3 3e d3 03 bd bf a9 a7 5d 3a d5 bf a1 be
       0.47541738 -1.4766792 0.0008455464 -0.3159167
000160 ab 20 c5 3d 45 b3 2d be 11 25 a0 bd 35 66 04 3f
       0.096253715 -0.16962917 -0.0781957 0.51718456
000170 c1 d9 8b 3e f5 e4 c4 3c 03 20 bf bf d6 6f d6 be
       0.2731457 0.024034956 -1.4931644 -0.418822
000180 b0 59 80 be b7 8d c4 bd e9 42 7e 3d 3c 8f 52 be
       -0.25068426 -0.095973425 0.06207553 -0.20562452
000190 46 3d 98 3e 98 9a 5a 3e 3e 28 aa 3d aa 13 bf 3e
       0.29734248 0.21348035 0.08308457 0.3731969
0001a0 8b 7c 0f 3e cb 8b f4 3e 8c 37 d8 3d 5b b7 65 3e
       0.14012353 0.47762904 0.1055747 0.22433226
0001b0 02 af 21 3d 5f 27 cb be 25 29 ab 3d ab ee ba 3e
       0.03947354 -0.39678475 0.08357457 0.36510214
0001c0 ba 51 e7 bd 33 c0 d1 3e ec 46 91 3e 2f 05 44 bd
       -0.11294885 0.4096695 0.28374422 -0.047856506
0001d0 86 50 bd 3e eb db 02 be a9 cc 64 3e b3 c4 80 3e
       0.36975497 -0.12779205 0.22343697 0.2515007
0001e0 71 d9 98 3d 50 d7 39 bd 0a e7 99 bd ee cb c4 3d
       0.07463349 -0.045371354 -0.0751477 0.09609209
0001f0 6c 37 99 3e a1 08 59 3d 09 82 19 3e 3f 07 c0 be
       0.29925096 0.052986745 0.1499101 -0.37505528

init_enc.2.weight f4 [128, 128]
000000 c3 5b b9 3c 7d 67 26 3f 67 13 1f be 5e 79 97 be
       0.022626763 0.6500166 -0.15534745 -0.29584783
000010 62 cc c9 3d 25 d5 43 3e 40 53 34 bd b2 69 5a 3e
       0.09853436 0.19124277 -0.044024706 0.21329382
000020 44 ce bd bf ce bf af bd d8 da 88 3e 39 bb 0b bd
       -1.4828572 -0.08581506 0.26729465 -0.034114096
000030 b2 3c a7 bd b4 2f 4d be 09 70 b4 be 6d 1c 5e 3e
       -0.081658736 -0.20037729 -0.35241726 0.21690531
000040 5a 8b 07 3e 8c 59 c5 3d a1 bb b5 3d 6c a1 c6 3c
       0.13236752 0.0963622 0.08873678 0.024246894
000050 78 33 88 3e b1 72 a1 3d c5 ec fe 3e 76 c0 f9 bd
       0.26601768 0.07883204 0.49790016 -0.12194912
000060 23 e1 35 3d 54 ea 8d bc 8b 89 b9 be c8 23 97 3d
       0.04440416 -0.01732365 -0.3623775 0.073798716
000070 d8 3e a4 3e ad 3d 60 3d 7c 0a f8 3d c0 73 25 3e
       0.32079196 0.05474632 0.12111375 0.16157436
000080 5c 3c c1 3e 94 89 12 be 90 6d cf 3d 30 ac 40 be
       0.37741363 -0.14310294 0.10128319 -0.18815684
000090 3d ee ec bd ec ce 4d bd ac 11 91 3d ce 83 52 3c
       -0.11568878 -0.050246164 0.07083449 0.0128488075
0000a0 e9 01 f6 3d 0b b0 6d 3d 6b 53 e9 3b 2e 1c 84 3d
       0.12012083 0.058029216 0.00712054 0.06450687
0000b0 e3 47 b1 3c 80 6c 1d bf 9e 38 91 bd 83 68 9d bd
       0.021640724 -0.6149368 -0.07090877 -0.0768595
0000c0 9a ab cc 3d 23 ee c3 bc 78 53 99 3d 3f d9 c2 bd
       0.09993668 -0.023917263 0.074866235 -0.09514093
0000d0 2f 9c 72 bd 98 ee 10 bf 20 2d 84 3d e3 55 ba bd
       -0.05923098 -0.56614065 0.064539194 -0.09098413
0000e0 71 aa aa 3c a2 53 d0 3c f7 2a 3d bf d8 c4 75 bf
       0.020833226 0.025430504 -0.73893684 -0.96003485
0000f0 d6 3c cf 3d 04 47 be bd eb 8c ac bd 8e 95 41 3d
       0.101190254 -0.09290889 -0.084253155 0.047261767
000100 88 41 5f 3c c1 73 3e 3d 31 5d f9 bd e0 ba 8c bd
       0.013626464 0.04649711 -0.12175978 -0.06871581
000110 a2 6f bd bd 03 9c 65 bc 15 4e c1 3d 8e 58 31 3e
       -0.09249808 -0.014014247 0.09438721 0.17318937
000120 f1 47 ef be f1 90 3f bf 63 ec 40 bd b6 af 1f bd
       -0.46734574 -0.7483054 -0.047100436 -0.03898593
000130 1f 6a 44 be da e8 19 3c bf 06 60 bd 04 4a b4 bd
       -0.19181107 0.009393895 -0.054693934 -0.0880318
000140 f3 3a 24 be 9b 44 12 be 38 70 6d bd 6b 96 1e 3e
       -0.16038112 -0.14283983 -0.05796835 0.15487067
000150 a8 64 80 3e b2 ff e8 3e 6c b2 1c 3f 5a e5 14 be
       0.25076795 0.4550758 0.6120975 -0.14540616
000160 e7 54 72 3d b6 2d ba 3b 21 8b 74 bd 08 3b f0 bd
       0.059163 0.0056817187 -0.059702996 -0.11730009
000170 42 d0 10 3e 04 90 80 bd aa 25 04 3d 17 ed 79 3d
       0.14141944 -0.06277469 0.03226248 0.061017122
000180 76 4b 00 be ff bc 87 bd ab 5c 15 bd 0f 5b 20 bc
       -0.12528786 -0.06627845 -0.03646533 -0.009787335
000190 d7 11 d0 3d 5b f8 7d 3d d2 4e 57 bb 7c c8 b6 3c
       0.10159653 0.06200443 -0.0032853377 0.022312395
0001a0 6b 11 a7 bd cb 22 75 bd 20 d8 30 3d a0 e4 a5 3d
       -0.08157619 -0.059847634 0.043174863 0.081002474
0001b0 65 5c 1b bc b9 72 e7 bd 6e 65 b2 bd be 10 d0 bd
       -0.009482478 -0.113011785 -0.087107524 -0.10159443
0001c0 04 7a df 3d 7f 14 69 3d 34 d4 c4 3d 3c 5b 0e bd
       0.109119445 0.056904312 0.09610787 -0.034754977
0001d0 ef df d8 bc b3 ba 1c 3c 76 69 b9 3d 11 10 bd 3d
       -0.026473967 0.009565997 0.09053318 0.0923158
0001e0 fd 27 37 3d a3 f3 af 3c 19 91 21 bd c9 5d ed bd
       0.04471587 0.02147848 -0.039445017 -0.11590154
0001f0 16 33 76 3c 9d bb 39 3c 2d bd 44 3d 2f 95 83 3d
       0.015026828 0.011336234 0.048031975 0.06424939
000200 04 16 5a 3e 97 cb 81 3e 1d 30 52 be bc e6 85 3d
       0.21297461 0.2535064 -0.20526166 0.0653815
000210 31 41 80 bd 2a bc 7d 3d 4d 68 dc 3c 8e 84 2f 3e
       -0.06262434 0.061947025 0.026905203 0.1714041
000220 72 a0 5d bf 3a 1b fc be 34 7c 82 3e f1 c7 17 be
       -0.86572945 -0.49239522 0.25485384 -0.14822365
000230 3b a5 a8 bb 3d f2 60 3c 56 84 60 3e 78 e9 84 3e
       -0.00514665 0.013729629 0.21925482 0.25959373
000240 b3 81 9b 3c 6d e9 d2 3d 71 4b aa 3e d2 6f f8 3b
       0.018982744 0.10298429 0.33260682 0.0075816894
000250 9e ef f5 3e 41 83 bf bd 20 ea 89 3e f6 88 9f 3e
       0.48034376 -0.093512066 0.26936436 0.3115918
000260 0e d4 52 3d 01 36 89 bc 4e 06 88 3e ce 8a 48 3e
       0.051471762 -0.016749384 0.2656731 0.195842
000270 af 17 bd be 12 56 2c bd ea c9 6a 3b 5e 3a 02 3e
       -0.36932132 -0.04207427 0.0035825917 0.12717578
000280 82 fe 28 bf 96 b7 90 be 14 b4 84 3e 3f 10 b9 bd
       -0.6601335 -0.28265065 0.2591864 -0.09036302
000290 66 fb 62 3e d7 4d 42 be 6e 06 cc be d3 6a e7 be
       0.22166213 -0.18975006 -0.39848655 -0.45198688
0002a0 0f f3 b1 3d 47 53 4d 3e f5 b0 12 bf a8 19 a0 3d
       0.08688938 0.20051299 -0.57301265 0.078173935
0002b0 f2 6f be bd ed aa 95 be 7b 79 ee bc f6 26 cd bd
       -0.092986956 -0.2923197 -0.02911066 -0.10017197
0002c0 35 be 31 bf d8 ae a9 3e 86 5b be 3c 98 4b bf bd
       -0.6943086 0.33141208 0.023237001 -0.0934059
0002d0 93 ab 26 3d 74 b7 02 bf 74 48 45 3d b6 4c 5d be
       0.04069097 -0.5106118 0.0481648 -0.21611294
0002e0 65 cb bd 3e 10 2e b2 3c 9d a8 9f be 9c 2b cf be
       0.3706924 0.02175048 -0.3118333 -0.4046296
0002f0 78 a9 2a 3e 67 5a 86 bd 18 14 94 3e cf 15 87 3c
       0.1666621 -0.06560212 0.2892158 0.016489891
000300 eb 7c a2 3d b9 ea a7 3e 3c 2a df 3e 71 76 ad be
       0.079339825 0.32796267 0.4358691 -0.33879426
000310 f8 3c b3 3e b3 4d 23 bf 0c 94 78 bc aa b4 37 3e
       0.35007453 -0.63790435 -0.015172016 0.17940012
000320 1c e5 43 bf cc f4 c0 3e ea ea a1 be 92 aa 0a 3d
       -0.7652147 0.37686765 -0.31624538 0.033854075
000330 2a dc 8c 3e 85 fd fe bd 9e 23 fe 3d 4c 19 57 3e
       0.27511722 -0.12450699 0.12409137 0.21005744
000340 89 bd 74 be a6 68 4f be 8c ce 97 3e f3 50 e1 be
       -0.23900427 -0.20254764 0.2964977 -0.44007072
000350 e9 a5 06 3f 6b 81 eb be bf b3 63 be 26 23 ab 3f
       0.5259691 -0.45997176 -0.22236536 1.3370101
000360 1d 04 04 3e aa 80 1a 3e 53 78 e7 3d 20 77 f2 3e
       0.12892194 0.15088144 0.11302247 0.4735651
000370 dc 76 11 3d 40 6f 74 bd c8 9a 94 bf f3 06 67 bd
       0.035513744 -0.05967641 -1.1609735 -0.05640311
000380 30 5d d7 bd 9a 92 eb 3d 22 6c 05 3d 2e b3 38 bc
       -0.10515821 0.115025714 0.032573827 -0.0112731885
000390 e1 fe 5c 3c cf 2a 1a bc 57 c7 91 bb d6 b8 0d bd
       0.013488502 -0.00940962 -0.004448812 -0.0346001
0003a0 c1 f4 33 bd 9b d6 16 3e df ae 8d 3d 3f be 87 3d
       -0.043934587 0.14730303 0.0691812 0.066280834
0003b0 51 53 8d 3d a4 e8 9f 3e 30 5d 5f be 72 f3 44 bc
       0.06900657 0.31232178 -0.21812892 -0.0120209325
0003c0 cd 65 9d 3d e0 e0 c8 bd fa 80 13 3e 5a ca 2c be
       0.076854326 -0.098085165 0.1440467 -0.16874066
0003d0 b7 24 5a 3e 05 f3 5f 3e d2 8a 99 3d a0 d1 2a 3e
       0.21303068 0.21870048 0.07497181 0.16681528
0003e0 32 58 48 bb 36 1b 0b be cc 78 5a bb ad 6b 0f bf
       -0.0030570147 -0.13584599 -0.003333616 -0.56023675
0003f0 0b b1 f6 be f1 30 d9 bd 2f 5e 86 3e a7 da 1a 3d
       -0.48181948 -0.10605038 0.2624373 0.03780618

init_enc.2.bias f4 [128]
000000 62 e8 f1 3d 04 e7 d2 3d b2 cf 3f 3d 68 66 1f 3d
       0.11811902 0.10297969 0.046828933 0.03891602
000010 cf ba 5f 3d d0 bf f0 3d 13 ec dd 3b 0a 1a 65 bd
       0.054621514 0.11755335 0.006772527 -0.055933036
000020 0f c0 bf bd ca 78 ab 3d 44 a3 eb 3c 55 44 44 3d
       -0.09362804 0.08372648 0.028764375 0.04791673
000030 63 bd e1 bb a0 4a 50 be 6c 9e 8f bd e8 eb 80 3d
       -0.0068890317 -0.20340967 -0.070126384 0.062949955
000040 e1 9b a3 bd 32 06 e5 3c b6 30 68 3d 10 ec 51 bd
       -0.07988716 0.027957056 0.05668708 -0.051250517
000050 ef 2d 36 3d ed 74 5e bd 87 55 80 3d f2 cf ab bd
       0.0444774 -0.054310728 0.06266313 -0.08389272
000060 01 2b 8c 3d 8a 79 1b 3e fb 15 c8 3d 8f c5 0b bd
       0.0684414 0.15183082 0.097698174 -0.034123953
000070 65 61 87 3d 6d 2c 6d 3d d3 85 a8 3d a4 17 81 3c
       0.066103734 0.057903696 0.0822865 0.015758343
000080 12 5b 31 3d d0 2a 82 3d 27 3b 7c 3d 48 28 d2 bd
       0.043299742 0.06355822 0.06157985 -0.10261589
000090 71 9f 27 bc 9a aa a5 3d 8e 4f bd 3c b2 d7 e6 3c
       -0.010230885 0.0808918 0.023109224 0.028179023
0000a0 df fa d4 3d dc dd ec 3d 98 05 d6 3d 69 ae 14 3d
       0.10399412 0.11565754 0.10450286 0.036299143
0000b0 9e 1c 83 3c 73 e2 8c 3d 2a a9 24 be de 87 de 3c
       0.016004857 0.06879129 -0.16080156 0.027164396
0000c0 a5 ef 80 3d ad 72 b7 3d 15 7b 97 3d bd 52 98 3d
       0.062957086 0.089574195 0.07396523 0.07437656
0000d0 b6 8f 0b 3e 0d f6 68 3d 43 d7 ef bc 7f 76 3a 3d
       0.1362904 0.056875277 -0.02927745 0.045523163
0000e0 85 bb 52 3d dd 55 ac bc 64 77 e0 3d 2e 59 61 3d
       0.051448364 -0.021037037 0.10960272 0.05501669
0000f0 fd 69 fc bb c0 a3 25 3d 8b 25 ef 3d 1f 5f 25 be
       -0.0077030645 0.040439367 0.11677083 -0.16149567
000100 e4 5a 1a 3e 09 28 4e bd da 24 09 be e7 36 08 3e
       0.15073735 -0.05033115 -0.13392964 0.13302194
000110 a4 b6 5a 3b 13 a2 33 bd dc ff d9 bc 0a de c7 3d
       0.0033373022 -0.043855738 -0.026611261 0.097591475
000120 41 ac e5 3d 3f 75 d7 3d 35 fc f3 bc 7f b0 35 3d
       0.112144955 0.1052041 -0.029783348 0.044357773
000130 fc 9d c0 3d d7 a5 85 bc cb 4a 74 bb d5 0a 10 3d
       0.09405133 -0.01631443 -0.0037276025 0.03516658
000140 6b 14 aa bd 9d 76 03 bd 4e 23 20 bb 46 0b 91 3d
       -0.08304676 -0.03209554 -0.0024435106 0.07082228
000150 f1 72 c5 3d 9e b8 81 3d f2 4a 13 be a1 4d 35 bc
       0.09641064 0.06334041 -0.14384058 -0.011065871
000160 3f b5 9e 3d 3e 00 b7 3d d6 a9 18 bd a1 69 45 3c
       0.07749414 0.08935593 -0.037271343 0.01204911
000170 0c 6d 5c 3a f8 c8 3d 3d 2e ec 61 bd 76 d4 59 3e
       0.0008408583 0.046334237 -0.05515688 0.21272454
000180 dc 1c be 3d 24 2b 4e 3d 27 1e 87 bd 14 8c ef 3d
       0.09282848 0.05033411 -0.06597548 0.1169664
000190 ab 50 bb 3d fd a7 04 3d c0 a2 9f 3d e4 5a ae bc
       0.091462456 0.03238677 0.07794714 -0.021283574
0001a0 52 f5 d4 3d 6f d2 8e bd bb 6c 28 3c 49 1e 8b 3d
       0.10398354 -0.06973731 0.01027983 0.06792886
0001b0 93 5c a7 bc c3 9f d1 bc c2 88 03 3e 7f 2a 3f 3d
       -0.020429885 -0.025588876 0.12845138 0.046671387
0001c0 1a fd 2b bd f9 2a 28 3d 3d 01 89 bc 30 3f ef 3c
       -0.041989423 0.041056607 -0.016724223 0.029204935
0001d0 d2 44 81 3d 52 e8 c6 3d f5 d3 1d 3d 8a e7 d6 3d
       0.063119546 0.0971228 0.038532216 0.10493381
0001e0 30 6b 65 3d 5b e8 83 3d 6e c7 99 3d d1 b5 f5 3d
       0.056010425 0.06440803 0.07508741 0.11997569
0001f0 9f 1c 3a 3d 8c e0 b6 3d 24 54 3b bd 13 71 96 3d
       0.04543745 0.08929548 -0.04573454 0.07345786

embed_sigma.0.W f4 [32]
000000 42 33 93 41 80 c2 97 40 92 2e 8e c1 a7 84 4b c2
       18.400028 4.7424927 -17.77274 -50.879543
000010 ba 9e 22 c1 02 07 c8 c1 8b b4 ac 41 0a a2 bc c2
       -10.163752 -25.003422 21.588156 -94.31648
000020 09 df 74 42 9c 97 44 c1 73 a6 70 41 c5 6f b9 41
       61.217808 -12.287014 15.040637 23.179575
000030 fe d6 a6 c0 82 c3 9a c1 21 53 f4 3f 44 6a 23 c2
       -5.213744 -19.345463 1.9087869 -40.853775
000040 58 34 b7 40 86 1d a7 41 18 26 bf be 3b 69 d1 c1
       5.7251396 20.889416 -0.3733375 -26.176382
000050 b3 9b 18 41 fd 05 db 40 d1 3e fa 3f b2 d9 7a 41
       9.5380125 6.844481 1.955042 15.678148
000060 f4 87 d1 40 32 30 21 c2 06 76 e8 41 ff f0 ee c0
       6.547846 -40.297066 29.057629 -7.4669185
000070 f6 52 0b c2 5f 30 e4 c1 86 d8 37 42 35 44 0e bf
       -34.831017 -28.523619 45.96145 -0.55572826

embed_sigma.1.weight f4 [64, 64]
000000 a1 6b aa bd 95 d4 fa bb df 9a 80 3d f4 2f 51 bc
       -0.0832131 -0.0076547363 0.06279539 -0.012767781
000010 13 b6 06 3e 9d b9 6e 3d f5 45 d1 3b 4d df ba bc
       0.13155393 0.058282483 0.0063865134 -0.022811556
000020 e2 ed b6 ba bc fc 89 3c 05 1f a7 3c 48 43 4f bd
       -0.0013956393 0.016844146 0.020400533 -0.050601274
000030 05 08 35 3d 1e 21 28 3d 0a 30 50 bd 9c c3 ab bb
       0.0441971 0.041047208 -0.050827064 -0.0052418243
000040 64 76 73 be e7 a7 c1 3d 8e e9 a6 3d 46 18 0c bd
       -0.23775631 0.09455853 0.08150016 -0.034202836
000050 ca e3 28 bd 71 06 f5 3d 8d 90 8e bc 0f 5a 14 3d
       -0.04123286 0.11964119 -0.017402912 0.0362187
000060 6a 83 fa 3b a9 3e ae 3c ef bf a7 bc d9 38 22 3e
       0.0076450603 0.021270113 -0.020477263 0.15841998
000070 db 1b 48 bd 4b 56 f3 3c 71 17 95 3c ee 9a 23 be
       -0.04885469 0.029704234 0.018199654 -0.1597707
000080 d9 95 df 3c ca fd 41 3d 11 0d 60 3d 93 e3 b5 bc
       0.027293133 0.047361173 0.05469996 -0.022203242
000090 71 65 88 3d fe b2 98 bc a0 10 8c 3c d0 b7 d9 3c
       0.066599734 -0.018640038 0.017097771 0.026576906
0000a0 8f 2e 44 bc e2 61 0f be 63 d3 6f 3d f2 4e 95 3b
       -0.011973991 -0.14002183 0.058551203 0.00455653
0000b0 8d 4d 33 be d4 ca 42 3c 13 c8 61 3e a0 d9 94 bc
       -0.17510052 0.011889178 0.22048979 -0.018170178
0000c0 1f 86 17 3e b3 a7 80 bd e7 87 83 be 34 a7 ab bd
       0.14797257 -0.06281986 -0.25689623 -0.08381501
0000d0 25 6b 45 3c 61 13 61 bb f3 3f 3a 3e 57 e2 cd bd
       0.012049471 -0.0034343826 0.18188457 -0.100529365
0000e0 3e 51 15 3e 82 2f 5f bd 93 60 76 3c 5e 82 85 3d
       0.14581773 -0.054488666 0.0150376735 0.06519006
0000f0 c2 9b 3d 3a 86 d5 0b 3d 59 38 53 3c e1 67 38 be
       0.00072329876 0.03413918 0.012891852 -0.18008377
000100 a7 4a 51 3d 63 29 dc bd 8b a3 6c 3c ac 70 1b 3d
       0.051096585 -0.107500814 0.014443289 0.03794925
000110 a3 b4 0a 3e 89 86 12 3d de dd 0e bd f2 10 52 3b
       0.1354547 0.035772834 -0.034879558 0.0032053557
000120 83 eb 8b bc 3f 54 e2 bb 16 fb 7f bd 3f e1 73 3a
       -0.017080074 -0.0069070156 -0.062495314 0.00093032786
000130 86 c2 31 bc 11 29 2e bd 40 30 f1 bc 96 21 24 3d
       -0.010849601 -0.042519633 -0.029441953 0.040071093
000140 73 d5 c4 3d 0a 6a 45 3c 49 28 6d 3e 21 2c 2f 3d
       0.09611025 0.012049207 0.23159899 0.042766694
000150 51 4e a1 3d 0b d9 3d bd e3 63 93 3c 7e e0 27 bd
       0.07876266 -0.046349566 0.017991966 -0.040985577
000160 e8 45 f2 bd d9 ca b4 ba 58 07 e2 bc b7 81 28 bd
       -0.1182974 -0.0013793363 -0.027591392 -0.04113933
000170 e4 36 d6 3c 5c 6b 8b bd 64 16 28 bd 9e 63 48 bd
       0.02614922 -0.068075866 -0.04103698 -0.048923127
000180 f6 bf 42 bd a4 85 b8 bd ce d8 98 bd 19 ba 9c bc
       -0.04754635 -0.09009865 -0.07463227 -0.019131707
000190 e6 13 9c 3c dc 66 cb bc 5f 78 07 3c ce 71 9d 3b
       0.019052457 -0.02482932 0.008268445 0.0048048263
0001a0 c3 ac 27 3d b2 5f 55 3d 7e f6 a4 bd 86 48 18 3d
       0.040936243 0.052093215 -0.08054827 0.03717854
0001b0 71 cf 22 3d b2 bb 2e 3d 73 bc 0e 3e ff 71 ad bd
       0.039748613 0.04265947 0.13939075 -0.08469009
0001c0 00 9d 34 3d 2c 97 ed bb db 4f 78 be 12 22 00 3c
       0.04409504 -0.007250687 -0.24249212 0.007820623
0001d0 8f 19 16 bd cc 2f bf 3a 4d cc 68 3e 01 ff e7 3b
       -0.03664547 0.0014586388 0.22734185 0.0070799594
0001e0 0c 01 f2 bd 01 4b a5 3d 60 b7 7a 3c 8a 5a a1 3d
       -0.11816606 0.080709465 0.015302509 0.07878597
0001f0 fa d9 e3 bd c3 af 7e bc d3 92 8b bd e4 38 5d be
       -0.1112556 -0.015544835 -0.06815114 -0.21603733
000200 94 a4 be bd 06 92 26 3f db be 18 be b3 f7 74 3a
       -0.093087345 0.65066564 -0.14916556 0.00093447714
000210 0e 12 92 3e e0 b9 08 bd bd 32 95 3d 15 b2 d7 bc
       0.285294 -0.03338039 0.07285068 -0.026330033
000220 82 3c 2e ba 5a 7e 01 bd a1 6f 98 3d a9 24 5d 3d
       -0.00066465896 -0.03161464 0.074431665 0.05399004
000230 c1 a5 02 3f 1c ee 1a 3d 44 c7 e1 3e e1 4a e0 3c
       0.5103417 0.037824735 0.4409734 0.027379455
000240 83 8d b9 3d 0a 4a c4 bd cb f5 0f bf 92 12 49 bd
       0.09060194 -0.09584434 -0.56234425 -0.049089976
000250 55 48 6c 3d c5 30 bd bd 9d e4 36 bd 71 f4 ac bd
       0.05768617 -0.09237818 -0.044651616 -0.08445061
000260 31 31 08 3e 4f 67 b4 3d d0 ae 2f 3d c4 24 64 be
       0.13300015 0.08808767 0.042891324 -0.2227965
000270 de 6f a6 3d ca 35 f7 bc 06 19 21 3d fc 29 70 3d
       0.08126806 -0.030177016 0.039330505 0.05863379
000280 f0 ca 22 3d 11 7c 14 3f f7 be fc 3d aa cb 8f 3c
       0.039744318 0.5800181 0.12341111 0.01755317
000290 c7 78 34 3e c5 2e dc bd 30 4c b0 bc ab 68 54 bc
       0.17624198 -0.10751108 -0.021520704 -0.012964408
0002a0 1e 0c 3c 3d 83 f4 85 3c 79 b2 de bd d5 28 96 3d
       0.045909993 0.016351944 -0.10873885 0.07332007
0002b0 a1 23 93 be 50 25 3c 3e 31 d3 5e bf dd 0f 43 ba
       -0.2873812 0.18373609 -0.87041 -0.00074410235
0002c0 9f 42 31 3f 57 55 38 3d 31 4a de bf b6 1f 04 3e
       0.6924228 0.04500326 -1.7366391 0.12902722
0002d0 67 b4 08 be f2 bf 46 be 16 16 66 bf 94 e0 e4 bd
       -0.13350068 -0.19409159 -0.8987745 -0.111756474
0002e0 02 99 5d be b6 8a 2e bd 2b f4 1a 3e 4a ae 53 3e
       -0.21640399 -0.042612754 0.15132205 0.20671955
0002f0 f2 9e cf 3d 3b 43 27 3c d4 8a 04 bd df 0a f0 bf
       0.10137738 0.0102089 -0.03235896 -1.8753318
000300 0f 73 94 ba c1 50 a0 bb ac 1d be 3c 25 c2 8b 39
       -0.0011325794 -0.004892439 0.023207508 0.00026656795
000310 47 4d 49 bc c5 e6 4c 3c 91 f4 20 3c 02 7e 3b bb
       -0.012286491 0.012506192 0.009823934 -0.0028609042
000320 84 49 04 bb 50 a8 6b bb 35 fd 20 bd af 02 22 3d
       -0.002018542 -0.0035958476 -0.039303977 0.03955334
000330 b9 4a bf bc c6 e1 bf bc d9 f5 e6 3d b0 24 09 3c
       -0.02335106 -0.023423087 0.112773605 0.008370563
000340 17 82 a7 bd ab 42 d4 bb c0 08 57 3d 82 88 7b 3d
       -0.081791095 -0.006477674 0.05249858 0.06140948
000350 c6 92 10 3d ec b2 a7 bd 0f 19 4f 3e e3 5a 78 bc
       0.035296224 -0.081884235 0.20224403 -0.015158388
000360 22 ed f0 3d e2 4a 2a 3b de 84 41 3d 3f 61 99 3d
       0.117639795 0.0025984575 0.047245853 0.07489251
000370 08 4a 7a 3b da 8c 58 3d 28 bf 77 bb 95 46 a6 bd
       0.0038191099 0.0528687 -0.0037803147 -0.08118931
000380 d8 a5 dd bc 47 e3 f4 3b 64 fa 1a 3b b9 98 a5 bb
       -0.02705662 0.0074733826 0.002364778 -0.0050536063
000390 01 f2 3b 3d 19 4a 8f 3d 1a 58 b3 bc ae b5 30 ba
       0.04588509 0.06996555 -0.021892596 -0.00067409396
0003a0 04 9e e9 ba 78 a4 00 3c 6c 90 3b 3d 29 01 96 3c
       -0.0017823582 0.007851712 0.04579203 0.0183111
0003b0 04 32 86 3d 3c dc a6 bb d8 74 9b be e9 6b 8d bc
       0.065525085 -0.005092172 -0.30362582 -0.01726337
0003c0 87 46 92 3d 2b e0 8d 3a 45 88 15 3e 27 90 ae bc
       0.07142358 0.0010824254 0.14602764 -0.021308972
0003d0 f7 8f 0d bd e2 76 37 bc 6f 8e 9b be b4 2b 2d bd
       -0.034561124 -0.011197777 -0.30382106 -0.042278007
0003e0 a6 a0 8f 3d 55 c2 a2 3c 1c fc d0 3b 91 f6 49 3d
       0.07013063 0.019868055 0.00637771 0.04930741
0003f0 98 96 4c 3b a4 75 34 bd 96 35 ba 3b e4 61 a2 3e
       0.003121769 -0.044057503 0.0056826575 0.3171531

embed_sigma.1.bias f4 [64]
000000 88 65 d7 be f8 c1 9e be 9b 6b 6b 3e 37 86 0b be
       -0.4206965 -0.3100736 0.22990267 -0.13625418
000010 ef 34 48 be 1b 5f 91 be 52 6e 0f 3e 30 19 db be
       -0.19551443 -0.28392872 0.14006928 -0.42792654
000020 cb 80 aa bd f6 48 10 bd fe 90 a7 bd db 1b b5 be
       -0.083253466 -0.03522583 -0.08181952 -0.35372815
000030 e8 c1 ed be f2 00 a2 be 27 0e 09 bf 9b a2 ab be
       -0.46437 -0.31641346 -0.5353722 -0.33522496
000040 15 d8 b8 be b1 a3 c1 be d0 08 39 3e 2a 20 b0 be
       -0.36102358 -0.378202 0.18069768 -0.3439954
000050 49 64 93 bd 98 d1 bf be 56 ed b9 bd 93 de e3 be
       -0.07196862 -0.37464595 -0.09078471 -0.44505748
000060 79 ce 01 bf 53 f2 ac be c8 0c 00 be b9 70 9a be
       -0.5070568 -0.3377863 -0.12504876 -0.30164126
000070 ee 3c 3f 3e 6e 59 5b be 4d 44 08 bf ab 34 49 be
       0.18675587 -0.21420833 -0.5322922 -0.19648997
000080 af c5 a3 be 0c 39 16 bf d8 b1 91 be e7 af 83 be
       -0.31986758 -0.58680797 -0.28455997 -0.2572014
000090 31 73 ce 3d 54 8a e2 be e8 f5 2a 3e 54 2c 44 bd
       0.10080565 -0.4424616 0.16695368 -0.047893837
0000a0 5c 54 b9 be e5 93 f9 3e 50 d3 8c 3d 65 09 f4 be
       -0.36197174 0.48745647 0.06876242 -0.47663417
0000b0 7c a1 82 be a4 f0 48 be bb 9e 4c be 77 72 77 3e
       -0.25513828 -0.19623047 -0.19982426 0.24164759
0000c0 ff f5 63 be 36 00 6c be 37 1a de 3e 33 79 1a 3f
       -0.22261809 -0.23046955 0.43379375 0.60341185
0000d0 2c 44 8b 3f a1 3d b0 be 25 6e 91 be ba 23 1d bf
       1.088018 -0.3442202 -0.28404346 -0.6138264
0000e0 72 0f 02 bf c6 ff f1 be fc 81 00 3f 27 8a 0f bf
       -0.5080482 -0.47265452 0.5019834 -0.5607018
0000f0 e5 56 4d 3f c7 3d 5d bc 4b ca cb be 14 2b 4b be
       0.80210716 -0.013503498 -0.39802775 -0.19840652

embed_category.weight f4 [10, 64]
000000 ec dd 86 bf 33 ec f5 3e e4 a0 1c bf db 30 31 ba
       -1.0536475 0.48031768 -0.61183 -0.0006759294
000010 f0 0d 6f be 2f 62 5e 3f b8 f9 0e bf 83 8c c1 be
       -0.2334516 0.86868566 -0.5584979 -0.37802514
000020 3c db a2 3f 43 2a b2 bf cc be 63 3f 9d 9f 92 bf
       1.2723155 -1.3919147 0.8896301 -1.145496
000030 75 85 1d bf e7 98 04 3f ea 3f 93 bf 40 b1 a9 bf
       -0.61531764 0.5179581 -1.150388 -1.3257217
000040 58 01 f6 3e 3e 50 80 b9 26 a9 85 3f ce 70 35 bf
       0.480479 -0.00024473848 1.0442245 -0.7087525
000050 35 be d3 3e 16 bb d2 be d4 1a d4 bf d0 d6 a4 3e
       0.41356054 -0.4115836 -1.6570687 0.3219514
000060 6d 20 f5 be 4c 1e 95 3f a3 d7 f5 3e 31 e3 88 3f
       -0.478763 1.1649871 0.4801608 1.0694333
000070 8c 08 90 3e e3 19 f7 be a7 b1 97 be 22 47 e3 3e
       0.2813152 -0.48261937 -0.29627725 0.44390208
000080 46 7b 28 bf f9 a3 ed bd b0 c5 c9 be 89 9f 20 bf
       -0.658131 -0.11603541 -0.39408636 -0.6274343
000090 99 40 9f be f6 a2 9a be 35 bd 1c bd 51 0c 11 bf
       -0.31103972 -0.30202454 -0.03826638 -0.5665942
0000a0 71 dc 70 bd d6 58 c1 3e 83 c1 12 bf a5 99 c5 3e
       -0.05880398 0.3776309 -0.57326525 0.38593784
0000b0 50 ac c7 bf 76 5c 32 3f 89 14 f9 3d 42 09 04 3f
       -1.5599461 0.69672334 0.1216212 0.51576626
0000c0 c3 89 df bc 0a 86 54 bd 25 db 92 3f 45 07 16 be
       -0.02728737 -0.051885642 1.1473128 -0.1465121
0000d0 f8 d1 5e 3e 12 11 71 3f 73 4e c6 bd bf c3 c1 bf
       0.21759784 0.9416667 -0.09682932 -1.5137862
0000e0 87 1f 9a b9 d8 ce 20 3e ea 9b 04 bf 19 4e 97 3f
       -0.0002939666 0.15703905 -0.51800406 1.1820709
0000f0 5d 25 54 bf 29 12 bb bf 54 e4 1e bf c5 f9 ab be
       -0.8286951 -1.4614917 -0.6206715 -0.33588997
000100 a9 6d 84 bf 0f 0c a0 3f 8e e3 0d bf ce 1e a6 b9
       -1.0345966 1.250368 -0.55425346 -0.0003168494
000110 be d0 c6 bf ec 8b 2c be 1b ff 94 3e c8 6c 34 c0
       -1.5532453 -0.16850251 0.2910088 -2.8191395
000120 3f 35 f5 bd ea 13 a8 3e 13 d8 fb be 3a 46 a1 bf
       -0.119730465 0.32827693 -0.4918829 -1.2599556
000130 15 4e 74 3e ec 55 7a bf ab 59 68 bf 0b ed 45 bf
       0.23857911 -0.97787356 -0.9076182 -0.77314824
000140 28 03 0d 3f e7 47 4a be dc 09 d6 3e 55 46 21 bf
       0.5508294 -0.19753991 0.41804397 -0.62997943
000150 b1 c5 28 bf 4d a3 9d 3c 2d 69 36 bf b5 16 85 bd
       -0.65926653 0.019242907 -0.71254236 -0.06498472
000160 0c 1b 98 b9 16 0d b7 bf f4 8a 05 bf ba 5b 96 bf
       -0.0002901185 -1.4300869 -0.5216515 -1.1746743
000170 70 12 fa bf 18 8f 4e ba 6b ce 96 3f b1 8e f6 be
       -1.9536877 -0.0007879599 1.1781744 -0.4815574
000180 37 1a 35 b9 3f 66 81 be 42 dd 00 3f 3a 70 0b 3f
       -0.00017271271 -0.2527332 0.5033761 0.5446812
000190 71 f2 22 be 44 77 0d 3e 00 f9 f0 be 0d 02 55 3f
       -0.15912797 0.13815027 -0.47064972 0.83206254
0001a0 00 00 b8 3c c4 7f ac 3e e0 4b c0 3e 61 92 aa bf
       0.022460938 0.33691227 0.37557888 -1.3325921
0001b0 42 c7 e8 3f 1c bd f9 be a3 b8 b2 3f c3 9c 30 be
       1.8185809 -0.48777092 1.3962597 -0.172473
0001c0 65 06 c9 3d cd 32 67 bf 8c 24 28 be b1 04 be bf
       0.09815673 -0.9031189 -0.16420192 -1.4845182
0001d0 30 23 f8 3d 53 e4 3c bf a5 ad c6 3e 6a e0 eb 3e
       0.121160865 -0.73785895 0.38804355 0.46069652
0001e0 7b cd 1e be 67 1f de bf dd bd 2a bf 77 a7 1e 3e
       -0.15508072 -1.7353333 -0.6669596 0.1549357
0001f0 b1 9c 76 be 69 6f 46 be ff 0f 65 3f a4 e9 cd 3d
       -0.2408321 -0.19378437 0.89477533 0.10054329
000200 17 77 ca bf a2 56 ad bf 29 1d 1a 3f 13 54 14 bf
       -1.5817593 -1.3542063 0.60200745 -0.5794079
000210 53 c2 94 3e 8a 23 6a 3f 23 96 29 bf 17 48 f2 be
       0.29054508 0.9146048 -0.66244715 -0.47320625
000220 43 56 07 40 1c e9 cb 3e 18 82 a7 3e c0 93 fe 3d
       2.11464 0.39826286 0.3271644 0.12430525
000230 7e f6 a6 bf 35 65 f1 bf da ec 64 3d ca 10 d2 be
       -1.3043973 -1.8859011 0.05588994 -0.41028434
000240 65 31 e7 be 20 f0 93 be a6 a1 a7 3e b7 90 f5 be
       -0.45154873 -0.28894138 0.32740515 -0.4796197
000250 71 30 90 3e 47 a9 75 bf 81 34 dd be 44 93 23 bf
       0.28161958 -0.9596142 -0.4320412 -0.63896585
000260 62 37 0c 3e 19 52 2b bf 62 46 83 bf 5f b1 ef bc
       0.13693002 -0.66922146 -1.0255854 -0.029259382
000270 cf 30 2d bf 0c 38 eb 3e 69 2c 11 3f d6 7e 15 bf
       -0.676526 0.45941198 0.5670839 -0.5839666
000280 7c ca 42 3f 44 8f e1 3e 87 3c 87 3f 82 d1 04 bf
       0.76090217 0.44054615 1.0565346 -0.51882184
000290 f7 45 ab 3e 28 6c 17 bf 4f c4 6e bf 6c f8 80 bf
       0.33451816 -0.5914941 -0.93268293 -1.0075812
0002a0 3d b8 1e bf db 48 e5 3e 1f 33 0b c0 c9 d5 88 bf
       -0.61999875 0.44782147 -2.1749952 -1.0690242
0002b0 8b 4c 8d bf 46 c0 21 bf 40 84 b9 bf 9c 42 83 be
       -1.1038984 -0.6318401 -1.4493484 -0.25636756
0002c0 78 81 47 3f 82 81 49 be 13 69 26 bf d1 97 0a bf
       0.7793193 -0.1967831 -0.6500408 -0.54137903
0002d0 dc 22 97 bf d2 2a 11 bf 11 de c8 3f be cd 9c be
       -1.1807513 -0.56705964 1.5692769 -0.3062572
0002e0 ef e3 31 3e 77 ab d5 be ab 3c 5e 3e cf d6 a3 bf
       0.17372106 -0.4173238 0.2170283 -1.2799929
0002f0 f5 b0 06 be 1b 9a b2 b9 ce 1f f1 3e bb b1 ff bd
       -0.13153441 -0.00034065623 0.47094578 -0.12485071
000300 06 89 8b be 39 f0 e7 be 6a 66 c1 3f 89 b6 56 ba
       -0.27252978 -0.45300463 1.5109379 -0.0008190652
000310 59 03 2e c0 fb fa 3a 3f e2 a6 4c 3f ab 8a 31 be
       -2.7189543 0.73039216 0.7994214 -0.17338054
000320 be 79 aa b9 4a c5 f4 ba 29 c1 92 3e 0d 4f 57 3f
       -0.00032515632 -0.0018674519 0.28662995 0.84104997
000330 dd 29 50 3f 35 5f d8 3d 0f dc 53 be 81 3e c3 3f
       0.8131388 0.10565034 -0.20689414 1.525345
000340 b9 f2 ae be 5f 05 37 bf be 99 5a 3e 11 e9 1d bf
       -0.34169558 -0.7149257 0.2134771 -0.61683756
000350 15 bd 7a be 12 c5 a3 3c 7e b9 bc bf c4 10 b3 3e
       -0.24486192 0.019991431 -1.4744108 0.3497373
000360 01 f9 db be 15 57 c4 3d b2 c0 66 bf cd 00 1e 3f
       -0.42963412 0.09586922 -0.9013778 0.6171997
000370 ca 32 28 bf 0b 7f 03 b9 e9 40 1f 3e 09 c1 4e bd
       -0.657025 -0.00012540461 0.15552105 -0.05047706
000380 99 09 1e 3f 12 ed 49 bf 94 ba a2 3f 11 89 c0 3e
       0.61733395 -0.78877366 1.2713189 0.37604573
000390 82 83 95 3e 85 46 9a 3d 70 8c 23 3e 6e c8 1a c0
       0.29201895 0.07532982 0.15971541 -2.4184833
0003a0 53 ad b1 bf 90 44 a8 3f 72 43 98 3f 06 fc 9e 3e
       -1.3881019 1.3145924 1.1895583 0.31051654
0003b0 93 42 80 bf 8a 23 36 3f 23 9a 8d 3e 81 57 78 3e
       -1.0020317 0.7114798 0.2765666 0.2425213
0003c0 43 cb 7f bf 80 82 c9 3d fc b3 b2 3f c1 cc c1 3d
       -0.9991953 0.09839344 1.3961177 0.09462882
0003d0 24 df 71 3f 8c 2b 80 bd bd 7d e1 be af ec 22 be
       0.9448111 -0.06258306 -0.44041243 -0.159106
0003e0 63 e8 89 3e b1 eb 9c be 91 ae d3 bf bb 92 16 be
       0.2693511 -0.30648568 -1.6537648 -0.1470441
0003f0 a4 6b 18 bd a2 97 40 bf d4 1a c5 b9 d1 24 13 be
       -0.03721203 -0.75231373 -0.00037594757 -0.14369513

mlp1_main.0.weight f4 [128, 512]
000000 e1 81 c9 3d a7 a6 b5 bd 76 ed c9 bc 98 ef 50 3e
       0.098392256 -0.08869677 -0.024649363 0.20403898
000010 06 6e 70 3c cf a9 20 bd 84 ba 18 be 80 b7 46 3d
       0.014674669 -0.039224442 -0.149149 0.048514843
000020 c3 2a 9c be 3d 06 ab bd 1d f6 a2 bd de 74 ac bd
       -0.30501375 -0.08350799 -0.07957099 -0.08420728
000030 0f 8d 22 bd e1 7c 06 3e 2f e7 e0 3d 12 47 fa bd
       -0.039685305 0.13133575 0.10981595 -0.12220587
000040 19 13 c4 bd fd e7 5c be d4 aa c1 3c c1 82 df bd
       -0.09573955 -0.21572872 0.023641028 -0.10913611
000050 f8 16 9e 3d 53 c1 56 3e 2e 28 29 3e 13 4d cc bd
       0.07719225 0.20972185 0.16519234 -0.09975638
000060 dd bc 94 3d 11 07 96 be 8a 4a 94 3e 4d ae 93 be
       0.07262585 -0.29302266 0.2896312 -0.28843918
000070 30 5c e0 bd 2e 0f 1c be a6 56 54 3e 9d e8 9f 3d
       -0.10955083 -0.15240166 0.20736179 0.07808039
000080 56 03 34 3e 7a 82 c8 3d d2 0f 91 3c fa 73 21 bf
       0.17579398 0.097905114 0.017707739 -0.6306759
000090 81 b9 44 3e 5e 9c 10 3e 8d b4 f7 bd f9 4e 3d 3c
       0.19211389 0.1412215 -0.12094984 0.011554473
0000a0 03 d3 41 3e ad fc 39 bb b5 4f a7 be ad 50 c1 38
       0.18928151 -0.0028379366 -0.32678 9.217984e-05
0000b0 43 f0 58 bd f0 00 85 3d 0c 77 97 3b a6 a1 f7 3c
       -0.052963506 0.064943194 0.004622346 0.030228447
0000c0 02 a1 24 be 87 35 6d be 9a 32 c4 3c 86 ea ac 3d
       -0.16077045 -0.2316495 0.02394991 0.08443169
0000d0 23 ac 02 3e ef ec a0 3e 7d b1 09 3d 4a 1e 71 3e
       0.12760977 0.31430766 0.03361653 0.2354671
0000e0 2e ac 7b 3d 9f 0a 05 bd 7b cb ab be e7 0a cf 3d
       0.0614435 -0.032480832 -0.3355368 0.10109501
0000f0 79 04 2f 3e 3b c6 ce 3c 23 9b cc 3c a6 10 3a bc
       0.1709155 0.025241008 0.024976319 -0.011356508
000100 02 75 ab 3d d1 e2 8e bc 2c da 67 bc 3c 5d 05 3e
       0.08371927 -0.017442139 -0.014151137 0.13023847
000110 34 16 38 3e 64 0c 5e 3e fb 03 14 be b4 03 e9 bd
       0.1797722 0.21684414 -0.14454643 -0.113776594
000120 a3 87 72 3e 67 6e 70 bd 40 4e 3a 3e 77 7f 08 3e
       0.23684554 -0.058699038 0.18193913 0.13329874
000130 36 71 0b bd 1b 58 6a bd 0a 2e 8a 3c 43 51 74 bd
       -0.034043513 -0.05721293 0.016867656 -0.05964781
000140 63 2d 9e bd 89 6b b7 3c b6 ac 9a 3d 4c 02 75 bd
       -0.077235006 0.022390144 0.07552473 -0.059816644
000150 17 90 ca bd 69 7c dd 3d aa fd 8b 3e 14 a8 c0 3d
       -0.09890764 0.10814745 0.27341968 0.09407058
000160 cb 1d 34 ba fe 8b a5 bc f4 fe 33 be 2f 34 48 3e
       -0.00068708946 -0.020208355 -0.17577726 0.19551156
000170 c5 82 f5 3d e0 09 16 be 26 49 00 be ae 6b 3b 3e
       0.11987833 -0.14652205 -0.12527904 0.18302795
000180 1c 31 da 3d 15 ed 2e 3e d4 11 50 3d a7 e8 40 be
       0.10653898 0.17082627 0.050798252 -0.1883875
000190 88 de 94 3c e3 9e b1 be fb 99 3c 3e 06 bc 31 3e
       0.018172517 -0.34691533 0.18418114 0.17356881
0001a0 02 92 2a be c3 71 ee bd c2 95 2d 3e 13 db 37 3d
       -0.1665726 -0.11642792 0.1695166 0.04488666
0001b0 ed 9d 69 3e be 09 73 3e 62 56 9a be 27 85 32 3c
       0.2281415 0.23734185 -0.3014403 0.010896004
0001c0 1a 04 e3 bc f0 9c 44 bb 98 57 3d 3e 80 fc 34 3e
       -0.027711917 -0.0030000769 0.18490446 0.17674446
0001d0 f6 ba ef 3c 29 67 22 be 2a 53 2b bc 28 0e 39 bd
       0.029263955 -0.15859665 -0.01045684 -0.045179516
0001e0 f2 f2 33 3e f0 0a ee 3d a0 a6 32 3d a1 35 cf 3e
       0.17573145 0.1162318 0.043615937 0.40470603
0001f0 47 ff de bc eb ef db be 46 04 27 3a 65 d3 2f bd
       -0.027221335 -0.4295648 0.0006371181 -0.04292621
000200 a1 17 aa 3d e2 c0 a3 3d e0 70 4d 39 84 31 77 3d
       0.08305288 0.07995774 0.00019592373 0.060349956
000210 a0 05 a1 bd 00 62 f7 3c a9 a1 de 3d 55 d5 1b be
       -0.07862401 0.030198097 0.10870678 -0.15218098
000220 4a cb 3e 3d 9e 96 8b 3c 45 8d ee 3d 74 a4 54 3d
       0.04658059 0.017039593 0.11648039 0.051914647
000230 8c 27 f6 bd 57 b7 5f 3e c5 cf e3 bd 47 4e 3d bc
       -0.12019262 0.21847282 -0.11123613 -0.011554307
000240 d7 1e 40 3e ef 58 d2 3d 07 e4 27 3e 0e 80 4a 3e
       0.18761764 0.10270869 0.1639558 0.19775411
000250 68 04 8d 3d b8 ba 3e bd 0f a6 0a bd 10 3d 34 3e
       0.06885606 -0.046564788 -0.033849772 0.17601418
000260 ef 25 fa 3d d1 a8 b3 3d 7c 68 39 3e 4d 29 b9 3d
       0.122142665 0.087724335 0.18106264 0.090410806
000270 98 63 34 3d 2f 6c 04 bd 1b 78 ab bc 5c fe 59 3d
       0.044040293 -0.032329734 -0.020931294 0.05322109
000280 51 b8 35 3e 4d 0b 0e bd 72 96 ca bc 48 21 1c 3d
       0.17746092 -0.034678746 -0.024729941 0.038117677
000290 72 50 50 3d 2c a2 ba 3d 35 6c a0 bd 7e 59 07 3e
       0.05085797 0.09112963 -0.07833139 0.13217732
0002a0 8f c7 0c 3e cc 4f 34 3b da c9 07 bd f1 88 18 3e
       0.13748 0.0027513383 -0.033151485 0.14895989
0002b0 a9 c6 f0 3a ae 6c 88 3e 39 ad b4 bc 21 1d 81 bd
       0.0018369752 0.26645416 -0.022055255 -0.06304384
0002c0 57 39 a7 bd f2 79 99 3e 7c b8 15 3e b5 1d cb bd
       -0.081652336 0.2997585 0.14621156 -0.099177755
0002d0 e3 a3 94 3d 1d 21 9f 3e a1 7e 9b bb 9c b7 9a 3c
       0.072578214 0.3107995 -0.00474532 0.01888638
0002e0 80 b7 bf bc 99 7e df bd f3 10 2b 3e e4 0d 55 3e
       -0.02340293 -0.109128185 0.16705684 0.2080608
0002f0 38 17 10 3c b8 52 82 bd 01 7c 58 3a 83 ea 03 bd
       0.008794598 -0.063634336 0.0008258224 -0.03220607
000300 17 4b 20 3d 0c 47 8a bd 68 7e 02 3e 32 10 a0 3c
       0.03913411 -0.06751832 0.12743533 0.019538973
000310 e4 10 2d 3c 48 1f 36 3d 89 83 b4 bc eb 2e bf 3e
       0.010563109 0.044463426 -0.022035377 0.37340483
000320 82 6b b8 3c 06 9d de 3e 6e c8 41 3d 7b 3d aa 3d
       0.022512201 0.43479174 0.047310285 0.08312508
000330 67 cc 99 be 50 ff 5b bd b3 cd a3 bd f2 45 ac 3d
       -0.3003876 -0.05371028 -0.079982184 0.084117785
000340 c2 47 c2 3c c1 44 07 bc 52 2d 24 3d 22 3f f9 3d
       0.023715857 -0.008256138 0.040082283 0.12170245
000350 e0 48 b9 bf b1 ff 00 3e cf 24 77 3d d5 f0 4a 3e
       -1.4475365 0.12597539 0.060337838 0.19818433
000360 75 de b2 bd 5d 60 de 3d be 6c e0 3c 8a aa 37 3d
       -0.087338366 0.108582236 0.027395602 0.044840373
000370 85 d6 47 3e c4 ce 77 3e 4f 9c 14 bf 31 cd 59 3d
       0.19515426 0.24199969 -0.5805101 0.0531742
000380 60 31 bd bf 46 b6 d4 bd bf c0 79 3c 58 fb 4c bc
       -1.4780693 -0.103863284 0.015243708 -0.012511097
000390 63 fd d4 bc d7 7c 6a 3e 63 f1 ab bd 1c ea 23 3d
       -0.02599973 0.22899185 -0.0839565 0.040018186
0003a0 28 ee 48 3d 23 44 b7 bd 66 f5 0d be 1e 49 86 bd
       0.04905525 -0.08948543 -0.13863143 -0.06556915
0003b0 92 79 d7 3d 55 a6 11 3d 0c 24 f8 3c 07 84 ca 3d
       0.105212346 0.035559017 0.030290626 0.098884635
0003c0 6d 19 a3 3d 05 c4 8c 3c 77 cd a9 3c af eb 13 bc
       0.07963834 0.017183313 0.020727856 -0.009028359
0003d0 b4 06 e4 3c 4c 4d 47 bd 59 31 78 3d 2f d8 27 3e
       0.027835228 -0.0486577 0.060593937 0.16391061
0003e0 77 c2 5a 3c fe ae 56 bd da e3 39 3e e4 4f a6 3e
       0.013352028 -0.05241298 0.18153325 0.32482827
0003f0 9f df 2d bf 21 39 31 3d 6d 02 bf 3e dd 86 5f bc
       -0.67919344 0.043267373 0.37306538 -0.013642994

mlp1_main.0.bias f4 [128]
000000 e5 52 14 3e fe ff 8f bd ed 95 93 3d d3 3c 0f 3d
       0.14484747 -0.070312485 0.072063304 0.034970116
000010 4a ed a0 3c 6a eb 4c 3d f1 17 e2 3b 4b 08 4b 3d
       0.019644398 0.050029196 0.0068998267 0.049568456
000020 aa 98 9e 3d 03 dd a0 3c 6c 10 35 bc 0a 1c 33 3d
       0.07743962 0.019636637 -0.011051279 0.043727912
000030 a9 23 91 3c e6 03 a1 3d 58 7c 35 3c d2 a8 c3 3d
       0.0177172 0.07862072 0.011077009 0.09553684
000040 36 e2 4f 3d da 96 29 3d d5 3c 27 3d ba 4e 25 bc
       0.05075284 0.04140363 0.0408295 -0.010089571
000050 e8 d4 29 bc e2 21 3a 3d bc 83 a5 bb a5 f2 17 3d
       -0.010365702 0.04544247 -0.0050511044 0.03709664
000060 1d 3e 68 3d ae 54 0a 3d a4 f6 6e 3c a9 36 87 3d
       0.05669986 0.033772163 0.014585171 0.066022225
000070 f1 0f ad 3c 9d c3 b1 3c 89 ed fd 3d ca 71 a3 bd
       0.021125766 0.021699721 0.12398822 -0.07980688
000080 82 0a 27 3d 84 af 99 bd ed 61 9f 3c f8 4b b3 3d
       0.040781505 -0.0750418 0.019455874 0.08754724
000090 85 6a ac 3d 64 ab ac bc 2f ee 6b bc 32 b1 c3 bc
       0.084187545 -0.02107782 -0.014400049 -0.023888204
0000a0 60 5d 32 3d de 88 10 3d d2 cd a8 bb a6 32 67 3d
       0.04354608 0.035286777 -0.005151489 0.056444786
0000b0 ab 42 ca bb a3 df 67 bc aa 4b ca 3d 8d dd 01 3d
       -0.006172498 -0.01415244 0.09877713 0.031705428
0000c0 ab 6e 8e 3b 7e 99 e0 3c 10 a7 bd 3d 6a ca be 3c
       0.0043466887 0.02741694 0.0926038 0.023289878
0000d0 f8 2c 8a 3c 8b cd 43 3d b0 8f 14 3d 39 95 7a 3d
       0.016867146 0.047803443 0.036269844 0.061177466
0000e0 c2 78 6f 3d f8 10 2d bd da 95 86 bd 19 1f 81 3d
       0.058464773 -0.04225251 -0.06571551 0.063047595
0000f0 d7 33 0a 3d 98 97 ed 3c 6a 1f 78 3d ec d8 bd 3d
       0.033740845 0.02900295 0.060576834 0.0926989
000100 82 eb c2 be 76 e1 99 3d 66 e2 e2 3d e3 ed 7a 3d
       -0.38070303 0.075137064 0.11078338 0.061262023
000110 e0 3e 91 3d c6 5b 40 bd 1f b0 5a 3d 85 48 fb 3c
       0.070920706 -0.046962522 0.05339062 0.030674228
000120 ee 04 37 3d 8a 0b 9c 3d 8b 6a dd 3c 1b 21 1f 3d
       0.044682436 0.076193884 0.027028343 0.03884993
000130 ab c2 ec 3d 62 d8 ad bc 7e b9 bc 3c e7 f8 b6 3d
       0.115605675 -0.021221343 0.023037668 0.08934193
000140 a4 e8 61 3c 83 15 eb 3b 74 73 3c be 44 79 52 3d
       0.013788376 0.0071741953 -0.18403417 0.05138518
000150 a5 85 3e 3d 68 f8 75 3d 2b 35 5c 3d bc 72 59 3d
       0.046514172 0.06005135 0.053761642 0.053087935
000160 f6 f4 e0 3c 71 bd 87 3d 9e b8 07 bc ea ca 49 3d
       0.027460556 0.0662793 -0.008283762 0.04926578
000170 f6 02 00 3d e6 9a 93 3d 87 f4 db 3c 29 d4 af 3d
       0.031252824 0.07207279 0.026849998 0.08585388
000180 d5 01 60 3d df 3b b5 3d a9 ac 4e 3c 63 21 80 bc
       0.054689247 0.0884931 0.012614408 -0.01564092
000190 bd be d6 3c 4c 97 cb 3d d6 6a 0c 3d 6c fb 98 3d
       0.026213998 0.09940967 0.034281574 0.0746983
0001a0 15 63 4d 3d bd a3 f7 bc 47 2b ee 3d 9d 29 e9 3c
       0.05014332 -0.030229444 0.11629348 0.028462226
0001b0 eb 83 ae 3d 57 98 1a bb 41 75 61 3d 35 f3 49 3c
       0.08521255 -0.0023589337 0.055043463 0.0123260515
0001c0 01 c5 96 3d 52 b9 64 3d 86 2e 5b 3d 9e 84 3b 3d
       0.07361794 0.055840798 0.053511165 0.04578077
0001d0 13 96 0a 3b c6 a2 85 bc fb 7d 9b 3d 64 4b ae 3d
       0.002114658 -0.016312968 0.07592388 0.08510473
0001e0 e4 1e e0 3a 2c c1 45 3b 2d 0e 92 3c f8 af 04 bd
       0.001709905 0.0030174954 0.017829025 -0.03239438
0001f0 50 52 d8 3c 46 59 ea 3c b4 6b ed 3d 56 2d ad 3c
       0.026406437 0.028607022 0.11592808 0.021139782
